model.tflite (tflite, 12576 bytes, 8 tensors)

unknown_0 f4 [40]
0.09284019 0.0 0.04349117 0.044062514 0.1647097 0.015551067 -0.013642716 0.19429305
0.0 0.09256357 0.046168715 0.05110889 0.054195207 0.1764214 0.21955918 0.0
-0.05912544 0.27812952 0.0 0.0 0.1639199 0.1679963 0.24368626 0.12671034
0.08487936 0.20817721 0.005081734 0.0 0.22587083 0.13565724 -0.04545431 -0.034695942
0.15960018 0.011968336 0.042874284 0.11421898 0.24544649 0.1510389 -0.006022476 0.029570237
00000000: ff22 be3d 0000 0000 cc23 323d e57a 343d
00000010: a9a9 283e e7c9 7e3c b385 5fbc c2f4 463e
00000020: 0000 0000 f891 bd3d 681b 3d3d 8e57 513d
00000030: cbfb 5d3d d0a7 343e 1fd4 603e 0000 0000
00000040: 842d 72bd fe66 8e3e 0000 0000 0000 0000
00000050: 9eda 273e 3907 2c3e e488 793e 5bc0 013e
00000060: 3bd5 ad3d 682c 553e ad84 a63b 0000 0000
00000070: af4a 673e bbe9 0a3e 4c2e 3abd 551d 0ebd
00000080: 3b6e 233e d716 443c f29c 2f3d a4eb e93d
00000090: 5356 7b3e f1a9 1a3e 3158 c5bb 483d f23c

unknown_2 f4 [25]
0.21082114 0.024039835 0.20843667 0.07390574 -0.04407261 -0.008040854 0.09478684 0.24856566
-0.05220948 0.035774145 0.11567771 0.21642405 0.06184536 0.16639791 0.0 -0.1041406
0.28959486 0.04440643 0.0009467331 0.0 -0.059009813 -0.024761667 -0.025265995 -0.11506006
0.038910016
00000000: 7fe1 573e 30ef c43c 6c70 553e e55b 973d
00000010: 7b85 34bd c9bd 03bc 9a1f c23d ff87 7e3e
00000020: 9cd9 55bd e987 123d 6fe8 ec3d 449e 5d3e
00000030: 8f51 7d3d 3764 2a3e 0000 0000 ab47 d5bd
00000040: c745 943e 84e3 353d 2f2e 783a 0000 0000
00000050: 46b4 71bd fbd8 cabc a2fa cebc 9ca4 ebbd
00000060: 1c60 1f3d

unknown_4 f4 [25]
-0.019232556 -0.019864261 0.20119281 0.1368339 0.079443395 0.16839524 0.06511324 0.09234594
0.0 0.13048865 0.14027494 0.036834393 0.12004053 -0.017343888 -0.05879093 0.018587839
0.17885326 0.11809938 0.2952438 0.0072895936 -0.14825019 0.080343045 -0.004569871 0.0
0.0
00000000: 988d 9dbc 60ba a2bc 7d05 4e3e 301e 0c3e
00000010: 38b3 a23d cd6f 2c3e 175a 853d de1f bd3d
00000020: 0000 0000 d19e 053e 3ca4 0f3e a9df 163d
00000030: cfd7 f53d c514 8ebc c2ce 70bd 8645 983c
00000040: 4f25 373e 16de f13d 322a 973e 8bdd ee3b
00000050: e6ce 17be e58a a43d dbbe 95bb 0000 0000
00000060: 0000 0000

unknown_6 f4 [20]
0.11016931 0.045029838 -0.13143775 -0.118220165 -0.044395987 0.0055147144 -0.14204699 -0.106055096
0.0052472176 -0.028792115 -0.06814876 0.09262072 -0.11454782 0.057674065 0.19447243 0.032868434
-0.102964334 -0.028707396 -0.0325099 0.065088354
00000000: 72a0 e13d 3571 383d 9e97 06be 6a1d f2bd
00000010: 91d8 35bd c7b4 b43b c474 11be 6a33 d9bd
00000020: daf0 ab3b 71dd ebbc 9491 8bbd efaf bd3d
00000030: 0c98 eabd a43b 6c3d c823 473e 0da1 063d
00000040: f7de d2bd c62b ebbc 1a29 05bd 0b4d 853d

sequential_16/dense_59/MatMul;StatefulPartitionedCall/sequential_16/dense_59/MatMul f4 [40, 6]
-0.67673945 -0.9605087 -0.15620887 0.4454026 0.3602052 -0.49545208 -0.13770266 -0.24736053
0.03541541 -0.20904617 -0.00089904666 -0.16610786 0.8496783 -0.10187189 0.12296188 -0.61247367
0.38059795 -0.10518529 -0.24291298 0.46145952 0.47115704 0.6705568 -0.17542847 0.59116006
-0.030340033 0.9572892 -0.43259856 0.68101263 0.047017034 0.53127575 0.7878331 0.44575372
-0.05987935 0.40876937 0.18078555 0.49736953 0.61898595 1.0971977 0.5731905 0.4608048
0.0067042783 -0.3074751 -0.01571166 -0.58226955 -0.15218098 -0.026367709 0.5515101 0.047688127
-0.29142597 0.35101762 0.24091247 -0.05711034 -0.11762886 -0.20903213 -0.01318671 -0.67548573
0.081800446 -0.39213267 0.3996924 -0.17239922 1.1197165 -0.44644433 0.07932945 0.24322656
-0.3222411 0.17681359 0.7064419 0.8656376 -0.029236067 0.012310552 -0.34403545 0.3822017
1.2248425 -0.12236565 0.5458987 -0.5611098 0.0100567965 0.32929128 0.52729285 0.13567689
0.6672579 -0.00841343 0.014547574 0.8002783 -0.53080714 -0.4079669 -0.63838726 0.5048698
0.2019736 -0.13787745 -0.18306434 -0.22433475 0.037483603 -0.123665795 -0.26867402 -0.17242284
0.2901617 0.8292548 -0.33089092 0.41506416 -0.048819944 -0.17519441 0.37031323 -0.6386691
-0.47215107 0.15122518 0.4100373 0.45952347 -0.1676044 -0.16819139 -0.10581693 -0.34681383
-0.042022288 -0.036841005 -0.1461542 -0.0054753423 -0.14207342 -0.08572024 -0.11155903 -0.13567467
-0.24196924 0.7063311 0.27332187 0.36752996 -0.0023687086 0.68929577 0.71821797 -0.74520457
0.5657096 0.33609295 0.5687071 -0.1054435 -0.21542563 -0.2792805 0.55491817 0.03437721
0.5345994 -0.016492238 0.40852147 -0.16870387 0.4229578 -0.31957293 -0.050314546 0.40928885
-0.29057536 1.1441993 0.08646914 0.4683539 0.29403326 0.2870066 0.13796745 0.37667528
0.82332706 -0.19803908 0.17800926 -0.22843727 -0.43931875 -1.0027448 -0.2448516 0.41761398
0.4236187 -0.45599815 0.0263111 -0.13829067 0.32551208 -0.02079159 -0.31020343 -0.09999636
-0.3651537 0.7964731 -0.34230143 0.5524279 0.41725704 -0.2782869 0.48908448 0.12072623
-0.39348873 -0.5877256 0.011786327 0.4671105 0.51088417 -0.44093588 0.066530704 -0.27622744
0.472502 -0.59563875 0.34466565 -0.2856519 0.07328076 0.03273312 -0.3882974 0.67035586
-0.26317573 -1.1703796 -0.04671199 0.35478643 0.2744022 0.55688924 0.28065035 -0.807425
0.2785939 -0.3667705 0.44249547 -0.37071618 -0.4705834 0.6870309 0.74000704 0.32470274
0.20142539 -0.33104253 -0.93197286 -0.5980426 -0.37659493 0.44048744 0.3389322 -0.29936063
0.3808626 1.0118979 -0.4772966 0.1489742 0.30436727 0.15758993 -0.60634935 1.106312
0.57771623 0.36216566 0.30650076 -0.46469918 1.0181079 0.94219 0.2709496 0.24485408
-0.24967493 -0.06490156 -0.07878107 0.8331983 0.44939432 0.19966951 -0.041501354 -0.032359652
00000000: cc3e 2dbf e6e3 75bf 38f5 1fbe cf0b e43e
00000010: d16c b83e e5ab fdbe ed01 0dbe 144c 7dbe
00000020: c00f 113d 3310 56be 00ae 6bba 2e18 2abe
00000030: 8484 593f 36a2 d0bd 70d3 fb3d 13cb 1cbf
00000040: bcdd c23e 636b d7bd 2ebe 78be 6c44 ec3e
00000050: 7f3b f13e 9ca9 2b3f 85a3 33be 4456 173f
00000060: a98b f8bc e810 753f 8f7d ddbe d856 2e3f
00000070: ef94 403d b001 083f 6eaf 493f d539 e43e
00000080: 0d44 75bd 384a d13e d91f 393e 38a7 fe3e
00000090: dd75 1e3f f970 8c3f 9dbc 123f 9bee eb3e
000000a0: 90af db3b 606d 9dbe bdb5 80bc 9e0f 15bf
000000b0: 55d5 1bbe 1801 d8bc c42f 0d3f a054 433d
000000c0: c935 95be 95b8 b33e c2b1 763e 88ec 69bd
000000d0: 66e7 f0bd 850c 56be 120d 58bc a2ec 2cbf
000000e0: fe86 a73d 9dc5 c8be 7ba4 cc3e 6c89 30be
000000f0: df52 8f3f 5a94 e4be 7b77 a23d 6210 793e
00000100: c9fc a4be 9f0e 353e 60d9 343f 6d9a 5d3f
00000110: 7a80 efbc 33b2 493c 6a25 b0be f1af c33e
00000120: a4c7 9c3f d89a fabd 04c0 0b3f e4a4 0fbf
00000130: 43c5 243c de98 a83e aafc 063f e2ee 0a3e
00000140: 6ad1 2a3f 7cd8 09bc f358 6e3c 0adf 4c3f
00000150: fae2 07bf 0ae1 d0be 596d 23bf 263f 013f
00000160: 2bd2 4e3e bf2f 0dbe 3875 3bbe 02b8 65be
00000170: 6888 193d 7e44 fdbd a48f 89be 9d8f 30be
00000180: 1390 943e 0b4a 543f 896a a9be 4a83 d43e
00000190: 6cf7 47bd 2a66 33be b299 bd3e d17f 23bf
000001a0: c9bd f1be c6da 1a3e 69f0 d13e a946 eb3e
000001b0: 7da0 2bbe 5d3a 2cbe 8cb6 d8bd 9591 b1be
000001c0: 901f 2cbd 98e6 16bd 72a9 15be 806a b3bb
000001d0: b27b 11be 188e afbd 1079 e4bd 4dee 0abe
000001e0: c9c6 77be 1dd2 343f d8f0 8b3e e32c bc3e
000001f0: 563c 1bbb b075 303f 22dd 373f bac5 3ebf
00000200: 58d2 103f 6014 ac3e ca96 113f c3f2 d7bd
00000210: 8998 5cbe dbfd 8ebe 1e0f 0e3f 1ecf 0c3d
00000220: 82db 083f bb1a 87bc ba29 d13e b5c0 2cbe
00000230: ed8d d83e 109f a3be a016 4ebd 4f8e d13e
00000240: 4bc6 94be 1f75 923f bc16 b13d 15cc ef3e
00000250: 878b 963e 87f2 923e 5747 0d3e 95db c03e
00000260: 90c5 523f c2ca 4abe 0f48 363e 76eb 69be
00000270: 63ee e0be f159 80bf 61ba 7abe 80d1 d53e
00000280: 8de4 d83e 9778 e9be 608a d73c 129c 0dbe
00000290: 85a9 a63e 2053 aabc fcd2 9ebe e4ca ccbd
000002a0: 6df5 babe a9e5 4b3f 2242 afbe ea6b 0d3f
000002b0: b7a2 d53e 9f7b 8ebe 4869 fa3e 503f f73d
000002c0: 5b77 c9be 2f75 16bf 701b 413c 1c29 ef3e
000002d0: 4ec9 023f 59c2 e1be 4041 883d af6d 8dbe
000002e0: c8eb f13e c87b 18bf 0478 b03e f740 92be
000002f0: 3914 963d 2a13 063d ebce c6be 719c 2b3f
00000300: f8be 86be 00cf 95bf 1255 3fbd 91a6 b53e
00000310: 727e 8c3e 4b90 0e3f 67b1 8f3e 68b3 4ebf
00000320: dca3 8e3e 58c9 bbbe c48e e23e 83ce bdbe
00000330: 4ff0 f0be 42e1 2f3f 1a71 3d3f 703f a63e
00000340: 7542 4e3e 687e a9be c695 6ebf 5219 19bf
00000350: 0dd1 c0be 9287 e13e 8588 ad3e cc45 99be
00000360: 6c00 c33e df85 813f 3860 f4be b18c 183e
00000370: 07d6 9b3e 415f 213e b639 1bbf a29b 8d3f
00000380: 36e5 133f c76d b93e abed 9c3e 0ded edbe
00000390: 5c51 823f 5d33 713f e8b9 8a3e 07bb 7a3e
000003a0: c9aa 7fbe 1ceb 84bd f857 a1bd 7c4c 553f
000003b0: 0317 e63e 2a76 4c3e 53fd 29bd 8e8b 04bd

sequential_16/dense_60/MatMul;StatefulPartitionedCall/sequential_16/dense_60/MatMul f4 [25, 40]
-0.19500577 0.25935954 -0.15340333 0.1277619 0.1286198 -0.13055219 0.071368225 -0.16836905
0.08756083 0.10206844 -0.5660182 0.19309421 -0.40832675 0.19040918 0.18328133 0.039055735
0.5350731 0.2930875 0.01574412 -0.01952982 0.47955996 -0.25439084 0.22337578 -0.013001311
-0.028609874 0.040152326 -0.44711983 0.16149971 0.1594259 0.5047724 -0.4008464 -0.18929702
0.23877457 -0.058923203 -0.40614963 -0.04110856 0.47594336 0.096970625 -0.2004752 0.076605715
-0.29930586 0.13724753 0.052254297 0.037992977 0.10221101 -0.08399557 0.11812685 -0.3089232
-0.20589179 -0.20888405 -1.5103184 0.27185974 0.20128208 0.15679945 -0.07232523 0.06876734
0.50374985 -0.14217794 0.23715663 0.24683625 -0.14493826 -0.06531439 0.24204989 0.35834175
0.3219706 -0.13979107 -0.15340543 0.05956483 -0.18250789 0.36193007 0.14964916 -0.08427264
-0.31633464 -0.17840914 0.23253508 -0.1975125 0.40126768 0.23487958 1.0048003 0.050136708
0.113900326 -0.15550101 -0.49638832 0.28979552 0.3688101 -0.19439948 -0.03352857 0.21692404
-0.21162713 -0.26747385 -0.6165135 -0.5439848 -0.33369723 0.18933636 0.14079939 0.044581056
0.26021504 0.04367616 -0.025906056 0.106651545 0.18472368 0.21295895 -0.1999471 -0.23208472
0.4399155 0.026217734 -0.18845706 -0.2225232 0.34222493 -0.29079297 -0.4652722 -0.54596466
0.13899636 -0.42879215 0.13527094 0.02233349 0.004370295 0.31253776 -0.6050086 0.21976237
0.54355925 0.055319667 0.40582475 -0.0752201 -0.14663282 -0.28750068 0.51263523 -0.087812275
0.27996647 0.23203465 0.12437178 -0.24351895 0.0004717483 0.09298026 0.4685318 0.29219258
0.2141671 -0.29129887 0.048040003 -0.16484377 0.07854584 0.33214948 0.19468312 -0.56260973
0.20151706 0.09987336 0.6598534 -0.10600801 0.35060915 -0.6192883 0.029524857 -0.6913519
0.2366139 0.46518674 0.44373038 0.7011713 0.042607043 0.58353186 -0.2069644 0.21218699
-0.3113716 0.034099102 0.27979407 -0.3610578 0.36572352 0.43435556 0.18935443 0.031077517
0.17368656 0.1824264 -0.5621296 -1.1572872 0.39283714 -0.13594249 0.05864272 -0.09654394
0.5754759 -0.024798993 -0.24139479 0.23163319 -0.3248027 0.09507843 0.18581471 -0.59274256
-0.04913272 -0.093937054 0.25337616 0.28220356 -0.13119537 -0.49548224 0.48174235 0.074929126
0.021329584 -0.08746139 -0.3589774 -0.37088218 0.27373996 -0.18344606 0.5861336 -0.19971445
0.66043353 -0.22422858 -0.1394317 -0.41105992 -0.0562195 -0.25423068 -0.32130295 0.2659524
0.09847352 0.18145175 0.10167511 -1.3587537 -0.9760634 -0.54507583 0.7928701 -0.22313732
-0.46704596 0.3511118 0.21581036 -0.27205524 -0.36527458 0.27690908 0.18232428 -0.7690786
0.095680766 -0.11708599 0.43160012 -0.21225202 0.33050966 -0.2708676 0.51981485 -0.78077215
0.23714486 0.6476197 0.39345962 0.7322988 0.21013793 0.10781296 -1.6879326 -0.032805495
-0.35640693 0.16251934 -0.50070935 0.1382728 0.3767739 -0.04901473 0.16926903 -0.05812215
0.16041484 -0.60763454 -0.1677137 0.4274288 -0.5393659 -0.1924888 0.37366667 0.24185556
00000000: 98af 47be c6ca 843e c315 1dbe 04d4 023e
00000010: e9b4 033e 79af 05be 8129 923d f068 2cbe
00000020: 1853 b33d 4209 d13d 92e6 10bf 7dba 453e
00000030: 3410 d1be a0fa 423e 1aae 3b3e e8f8 1f3d
00000040: 8dfa 083f 910f 963e d0f9 803c 00fd 9fbc
00000050: e288 f53e 843f 82be 9fbc 643e 7303 55bc
00000060: 415f eabc c476 243d e4ec e4be 2e60 253e
00000070: 8b40 233e c438 013f bd3b cdbe 14d7 41be
00000080: 5281 743e 7559 71bd d8f2 cfbe 7361 28bd
00000090: d9ae f33e 8998 c63d 5f49 4dbe 75e3 9c3d
000000a0: 9e3e 99be 9e8a 0c3e 9a08 563d 869e 1b3d
000000b0: 0254 d13d df05 acbd 7dec f13d 2f2b 9ebe
000000c0: 4cd5 52be b3e5 55be 1d52 c1bf 3331 8b3e
000000d0: e41c 4e3e 0990 203e 401f 94bd e4d5 8c3d
000000e0: c0f5 003f 1897 11be 30d9 723e a4c2 7c3e
000000f0: b26a 14be 8dc3 85bd eddb 773e 9278 b73e
00000100: 55d9 a43e 6425 0fbe 5016 1dbe 40fa 733d
00000110: 59e3 3abe e64e b93e a13d 193e 2297 acbd
00000120: 9df6 a1be e3b0 36be ad1d 6e3e b840 4abe
00000130: f572 cd3e 4684 703e 4c9d 803f 265c 4d3d
00000140: 9344 e93d a83b 1fbe 9c26 febe 1460 943e
00000150: add4 bc3e a810 47be 4155 09bd 5621 5e3e
00000160: c8b4 58be 55f2 88be d4d3 1dbf 9642 0bbf
00000170: 5dda aabe 64e1 413e b72d 103e a09a 363d
00000180: e83a 853e c6e5 323d f038 d4bc 206c da3d
00000190: 3428 3d3e e911 5a3e efbe 4cbe 9ea7 6dbe
000001a0: 9b3c e13e 93c6 d63c e3fa 40be 1fdd 63be
000001b0: 1b38 af3e d1e2 94be 2838 eebe 57c4 0bbf
000001c0: 1055 0e3e a58a dbbe 7784 0a3e b9f4 b63c
000001d0: b134 8f3b f304 a03e d8e1 1abf 6309 613e
000001e0: b326 0b3f e096 623d 43c8 cf3e ff0c 9abd
000001f0: ea26 16be 4a33 93be 103c 033f ecd6 b3bd
00000200: c457 8f3e 7e9a 6d3e a2b6 fe3d 085d 79be
00000210: fc54 f739 6f6c be3d 66e3 ef3e 449a 953e
00000220: 9f4e 5b3e 2025 95be 98c5 443d cecc 28be
00000230: a4dc a03d 7f0f aa3e 035b 473e 3107 10bf
00000240: 7d5a 4e3e 678a cc3d 27ec 283f ba1a d9bd
00000250: 0b83 b33e ae89 1ebf 1dde f13c 70fc 30bf
00000260: ea4a 723e f52c ee3e a130 e33e f67f 333f
00000270: b984 2e3d 5862 153f 7aee 53be 8c47 593e
00000280: 196c 9fbe 80ab 0b3d 2b41 8f3e 91dc b8be
00000290: 1d40 bb3e da63 de3e 21e6 413e 4796 fe3c
000002a0: e4da 313e fccd 3a3e bae7 0fbf fd21 94bf
000002b0: f321 c93e 8234 0bbe 5933 703d d4b8 c5bd
000002c0: 6352 133f 4227 cbbc 3230 77be 4031 6d3e
000002d0: 8a4c a6be 7bb8 c23d 3646 3e3e fabd 17bf
000002e0: 643f 49bd 1262 c0bd 85ba 813e fc7c 903e
000002f0: 1458 06be d9af fdbe efa6 f63e 7174 993d
00000300: 61bb ae3c f51e b3bd e3cb b7be 45e4 bdbe
00000310: a527 8c3e 49d9 3bbe da0c 163f f281 4cbe
00000320: 2c12 293f 2d9c 65be 2fc7 0ebe 7276 d2be
00000330: 6b46 66bd 862a 82be d281 a4be ea2a 883e
00000340: 7cac c93d 7dce 393e 0a3b d03d a4eb adbf
00000350: 4adf 79bf 178a 0bbf 89f9 4a3f 1c7e 64be
00000360: a620 efbe edc4 b33e 64fd 5c3e d34a 8bbe
00000370: 4505 bbbe 07c7 8d3e 37b3 3a3e 56e2 44bf
00000380: 47f4 c33d c8ca efbd b1fa dc3e 9858 59be
00000390: 9038 a93e 28af 8abe 9612 053f afe0 47bf
000003a0: 1ad6 723e 68ca 253f 8a73 c93e ef77 3b3f
000003b0: 662e 573e 0bcd dc3d 2d0e d8bf 0e5f 06bd
000003c0: f87a b6be 786b 263e 7d2e 00bf 6397 0d3e
000003d0: 82e8 c03e abc3 48bd dc54 2d3e 7e11 6ebd
000003e0: ca43 243e f08d 1bbf 24bd 2bbe f3d7 da3e
000003f0: e213 0abf c91b 45be 3d51 bf3e fca8 773e

sequential_16/dense_61/MatMul;StatefulPartitionedCall/sequential_16/dense_61/MatMul f4 [25, 25]
0.19078492 -0.22330447 -0.31796795 -0.11366229 0.13600212 0.04149568 -0.06903675 -0.30659708
-0.0896795 -0.2578525 0.0983864 0.043253817 -0.21039017 -0.16210625 -0.2039562 0.15193033
0.22753292 0.055688042 0.10442179 -0.027150273 -0.16840322 -0.1434051 0.028238105 -0.3225
-0.29403535 -0.22776113 0.2600278 0.5005297 -0.36020103 -0.55659485 -0.806227 -0.021658804
0.27655202 0.51706314 0.51825154 -0.3866424 0.048499193 0.29608145 -0.29117474 0.032543004
-0.48005936 -0.052394334 -0.31974235 0.35443637 -0.18376999 0.33448923 0.18456571 0.45412236
-0.1711979 0.004613055 0.26298615 0.32458854 0.18599848 -0.49975157 -0.47109497 -0.32304737
-0.6293016 0.5432444 -0.24670368 -0.56939876 -0.039958615 0.5356247 -0.10056106 0.29406673
-0.13836241 -0.00766501 0.08535189 0.20973673 -0.12891902 -0.20662199 0.06690136 0.10688154
-0.5349257 -0.10687457 -0.018425778 -0.24260893 0.02509771 -0.018686516 0.47724757 0.8032975
0.414817 -0.7740385 0.12436542 -0.1604691 -0.15133557 0.56519485 -0.11540361 0.2602471
0.4720751 0.26695126 0.39883566 0.39793968 -0.06334863 -0.22013979 0.15985614 -0.4464526
-0.3121164 -0.11842952 0.4143318 0.5450105 -0.12598996 -0.66422266 -0.4171381 -0.28097767
0.27283546 -0.023614032 -0.64862275 -0.24207118 0.21930426 -0.4259545 -0.3296468 0.6187611
0.40115795 0.7404693 0.1293037 0.50325364 0.11879174 0.3296114 -0.12874088 0.11889613
0.20769821 0.08546343 -0.36059362 0.40645766 0.10813807 0.09217603 0.6295434 0.24699843
-0.12511513 0.60081977 -0.7443526 0.27368855 -0.0031793641 0.21962315 0.23275489 -0.42177215
0.8096314 -0.23369627 0.5076844 0.12038243 0.17787693 0.11232971 0.36181352 0.5186637
0.023620844 -0.7967527 0.29983765 0.39649823 0.046908487 -0.56893754 -0.0429678 0.17954218
0.42985043 0.37402156 -1.1610436 0.15127999 0.9800638 0.24551159 0.09635349 0.15528038
-0.06392694 -0.24136338 0.20050287 0.1956849 0.06519744 -0.5079397 0.2525675 -0.10112023
0.2971618 0.22472632 -0.26860464 0.017450895 0.045943733 -0.53846884 -0.00018217643 -0.09995755
0.47099614 0.53157324 0.12068154 0.14794408 -0.44646448 -0.47498846 -0.0796708 0.42175433
0.65633947 0.26355484 -0.30177942 0.25273404 -0.39245456 0.22504795 -0.16663614 0.37873152
0.4016599 0.31988198 -0.06420049 -1.0100291 -0.05042919 0.33795938 -0.23973314 -0.030425452
-0.21957946 0.058617026 -0.32496658 0.30552167 0.11802834 -0.25667703 -0.3115038 -0.15477242
-0.0035297573 0.09965104 0.099909306 -0.3155301 0.24199945 -0.26366022 -0.3273219 0.13806978
-0.17547524 -0.21129718 -0.31173274 0.3189131 -0.16400456 -0.18100709 0.017069757 -0.27182052
-0.13713874 0.26641878 0.12631607 0.34504452 0.34681922 -0.3131799 0.007989355 1.3980231
0.62763363 0.36003217 0.10637879 0.345789 0.17775123 -0.13849774 -0.74480057 -0.03832856
-0.33477855 0.34040192 -0.020768281 -0.104869254 -0.057630986 -0.17151052 -0.2622184 0.16713144
0.057235643 0.48140514 0.094610535 -0.8748903 0.13082613 0.23414357 -1.1202238 0.18316801
00000000: 1f5d 433e eda9 64be b2cc a2be c6c7 e8bd
00000010: 2444 0b3e 60f7 293d 2463 8dbd 4bfa 9cbe
00000020: e3a9 b7bd 3e05 84be cf7e c93d ea2a 313d
00000030: 8570 57be 2eff 25be e5d9 50be a093 1b3e
00000040: 64fe 683e 2519 643d 17db d53d 406a debc
00000050: e571 2cbe c9d8 12be 9953 e73c b81e a5be
00000060: cd8b 96be 373a 69be 5d22 853e b722 003f
00000070: 456c b8be 007d 0ebf e564 4ebf ce6d b1bc
00000080: 3a98 8d3e 405e 043f 22ac 043f fef5 c5be
00000090: 17a7 463d fd97 973e db14 95be d04b 053d
000000a0: 57ca f5be 719b 56bd 45b5 a3be af78 b53e
000000b0: 332e 3cbe 2c42 ab3e cbfe 3c3e ba82 e83e
000000c0: 814e 2fbe 1c29 973b 1fa6 863e 7830 a63e
000000d0: 6376 3e3e 70df ffbe 5c33 f1be 7766 a5be
000000e0: e919 21bf 1112 0b3f e49f 7cbe 1ec4 11bf
000000f0: a5ab 23bd b31e 093f f5f2 cdbd ea8f 963e
00000100: e0ae 0dbe c42a fbbb f9cc ae3d 3ac5 563e
00000110: 5903 04be b794 53be 9503 893d b5e4 da3d
00000120: e4f0 08bf 0ee1 dabd a8f1 96bc 7a6e 78be
00000130: b699 cd3c 7714 99bc cb59 f43e e8a4 4d3f
00000140: e562 d43e 6327 46bf 4cb3 fe3d 0352 24be
00000150: b6f7 1abe 9cb0 103f ba58 ecbd 1c3f 853e
00000160: d4b3 f13e d6ad 883e 3034 cc3e c0be cb3e
00000170: edbc 81bd 536c 61be 54b1 233e 6f95 e4be
00000180: b9cd 9fbe 2d8b f2bd 4c23 d43e cf85 0b3f
00000190: 8303 01be 7f0a 2abf 2093 d5be 4edc 8fbe
000001a0: 17b1 8b3e 3772 c1bc 240c 26bf 82e1 77be
000001b0: 4c91 603e b516 dabe 77c7 a8be 2167 1e3f
000001c0: 9364 cd3e 658f 3d3f 3068 043e 3bd5 003f
000001d0: 1549 f33d d3c2 a83e a6d4 03be d07f f33d
000001e0: d7ae 543e 7307 af3d ba9f b8be 381b d03e
000001f0: 7e77 dd3d c9c6 bc3d c229 213f 28ed 7c3e
00000200: 2e1e 00be 53cf 193f e48d 3ebf e820 8c3e
00000210: e15c 50bb e4e4 603e 4c57 6e3e 85f2 d7be
00000220: 0144 4f3f 134e 6fbe 9bf7 013f 108b f63d
00000230: 5f25 363e 1e0d e63d 9f3f b93e 25c7 043f
00000240: 8080 c13c fcf7 4bbf 5284 993e d101 cb3e
00000250: 1d23 403d e4a5 11bf 01ff 2fbd e8d9 373e
00000260: 5b15 dc3e c17f bf3e 149d 94bf 24e9 1a3e
00000270: 76e5 7a3f 6467 7b3e fb54 c53d d201 1f3e
00000280: 21ec 82bd f627 77be a050 4d3e 9f61 483e
00000290: 3c86 853d 5608 02bf 8750 813e 2018 cfbd
000002a0: 9725 983e a81e 663e 8c86 89be 2ef5 8e3c
000002b0: 7f2f 3c3d 18d9 09bf 9d06 3fb9 8bb6 ccbd
000002c0: 6826 f13e 2f15 083f e227 f73d a77e 173e
000002d0: fe96 e4be b031 f3be 722a a3bd 2ff0 d73e
000002e0: dd05 283f a9f0 863e d582 9abe 5b66 813e
000002f0: ceef c8be f872 663e aaa2 2abe 19e9 c13e
00000300: 5ea6 cd3e 92c7 a33e 8c7b 83bd a248 81bf
00000310: d78e 4ebd 0309 ad3e 9b7c 75be cc3e f9bc
00000320: 70d9 60be 6818 703d 0562 a6be 566d 9c3e
00000330: d8b8 f13d 2c6b 83be 6d7d 9fbe a97c 1ebe
00000340: 8053 67bb d815 cc3d 409d cc3d 298d a1be
00000350: b4ce 773e 79fe 86be bc96 a7be 2a62 0d3e
00000360: c8af 33be 4a5e 58be 6f9b 9fbe 9448 a33e
00000370: d0f0 27be ec59 39be e0d5 8b3c 0f2c 8bbe
00000380: 196e 0cbe 0b68 883e 0059 013e ada9 b03e
00000390: 4a92 b13e 1e59 a0be c9e5 023c 6cf2 b23f
000003a0: 99ac 203f 2356 b83e 20dd d93d 410b b13e
000003b0: 6b04 363e 5ad2 0dbe 40ab 3ebf 68fe 1cbd
000003c0: 1868 abbe 2949 ae3e 3e22 aabc b1c5 d6bd
000003d0: 780e 6cbd 74a0 2fbe 7d41 86be 8124 2b3e
000003e0: ec6f 6a3d bc7a f63e 2bc3 c13d d0f8 5fbf
000003f0: 49f7 053e 55c3 6f3e 7e63 8fbf 6590 3b3e

sequential_16/dense_62/MatMul;StatefulPartitionedCall/sequential_16/dense_62/MatMul f4 [20, 25]
-0.33454436 -0.90960956 0.18161307 0.26731002 0.038208805 -0.0125110075 0.12640303 0.4469503
0.03907135 0.27605766 0.73010236 -1.0173094 -0.39895877 -0.10666532 -1.141433 0.20686714
0.0032362193 0.118730634 -0.2002361 -0.8289486 -0.86341757 0.13958982 -1.1811769 -0.2591709
0.10830313 -0.008450881 -0.2111748 -0.9075423 0.3305039 0.2739405 0.66454124 -0.16202374
0.120916225 0.23558927 -0.5433755 -0.39061433 0.075809665 -0.005236172 0.08346376 0.15977737
0.5257064 -1.0067662 -1.4599946 -1.3387506 -0.0593648 -1.2083536 -0.8167722 -1.4278606
-0.23508357 -0.07431379 0.1047732 0.37442407 0.081085585 -0.9197075 -0.10922487 0.35334456
0.2770224 0.036572658 -0.3426058 -0.28597528 0.31640697 -0.06481749 -0.6375663 -0.26167935
-0.40402588 0.59912246 0.23389564 -0.11205916 -0.3545112 -0.6236367 -0.03876026 -0.06924745
0.2564986 0.3627169 0.13686049 -0.08382771 0.2142271 0.23701534 0.15786755 0.4254745
0.21870299 -1.0339726 -0.57739013 0.10192299 -0.39344358 0.3779996 -0.6285984 -0.6884377
-0.10521959 -0.4730842 -0.34243575 0.18632492 0.009761776 0.07743792 -0.7497771 0.35454616
-0.26362506 0.08930801 -0.0021280348 0.13324425 -0.24229883 0.14416052 -0.33141556 -0.10010504
0.5993499 -0.32274905 -0.5047654 -0.57897574 0.3255247 -0.43125346 -0.7125966 0.027240636
0.38324353 -0.24293011 0.44997695 0.3364809 0.1399898 -0.5688279 -0.92335635 0.17192908
0.109277755 0.16250716 0.4603636 -0.3361204 0.15594667 -0.17840965 -0.38811034 -0.08681721
0.0051173116 0.23459916 0.5255697 0.21470788 -0.233812 0.08206025 -0.8648494 0.3554027
0.2374214 -0.2688018 -0.12347149 -0.47717047 0.42457643 -0.11188517 -1.2313781 -0.7848708
0.07105335 -0.4810593 -0.7753782 -0.3321733 0.3308674 0.08173445 -0.23744759 -1.2515869
0.035762258 -0.17150101 0.049173884 0.35572606 -0.06327278 -0.6052383 -0.3415361 -0.50268865
-0.25020298 -0.27222565 -1.0656915 -0.36833328 -1.4610219 0.34675395 0.2039388 0.088579595
0.18809323 -0.5000246 0.43491536 -0.6594964 -0.046231877 0.026598454 -0.184757 0.00011509017
0.30993614 -0.23314723 -0.76473224 -0.232274 -0.017756667 -0.18057905 -0.63047177 -0.23236535
0.12809105 -0.044777445 0.29739264 -0.46600008 -0.3715691 -1.0302205 -0.58946466 0.22210543
-0.12551194 0.06247668 0.2123061 -0.08643139 -0.071134485 -0.1656192 -0.022683352 0.24286532
-0.06192523 0.72156143 -0.7741644 -0.7027249 -0.48046318 0.4835512 -0.040788908 0.42553222
0.1992445 -0.21644503 0.27279663 0.12773705 -0.625237 0.24867801 -0.55309796 0.39727905
0.011579079 -0.33708772 -1.8591697 0.055270705 -0.5751082 0.4889269 0.06248058 -0.10971895
-0.23713152 -0.19797105 -0.047763765 -1.1086695 0.5064672 0.08971627 -0.60319334 -0.25651965
-0.14565226 0.24964577 0.13391244 0.2539089 -0.95866454 -0.12788838 0.34935966 0.1997809
0.23023853 -0.3743606 0.057511345 0.097748585 0.1586197 -0.96351534 -0.0032297976 -0.46982193
-0.19310692 0.2038449 0.051536053 -0.11763145 -0.75660855 -0.09290131 0.097624324 0.012138336
00000000: 6649 abbe 2cdc 68bf c7f8 393e dcdc 883e
00000010: d680 1c3d f8fa 4cbc cc6f 013e abd6 e43e
00000020: 4809 203d 6e57 8d3e fde7 3a3f 3237 82bf
00000030: 5344 ccbe 5973 dabd 7a1a 92bf fbd4 533e
00000040: c016 543b 0c29 f33d b10a 4dbe fa35 54bf
00000050: ef08 5dbf a2f0 0e3e ce30 97bf 0cb2 84be
00000060: 08ce dd3d 9075 0abc 353e 58be b154 68bf
00000070: cf37 a93e ee41 8c3e 601f 2a3f 8de9 25be
00000080: eda2 f73d 503e 713e a81a 0bbf 9afe c7be
00000090: 1942 9b3d 3294 abbb 0cef aa3d ae9c 233e
000000a0: b294 063f b7dd 80bf 1ae1 babf 2e5c abbf
000000b0: 8128 73bd 55ab 9abf fc17 51bf 23c4 b6bf
000000c0: bfb9 70be d431 98bd 5593 d63d 83b4 bf3e
000000d0: 3310 a63d f371 6bbf 4ab1 dfbd 94e9 b43e
000000e0: e1d5 8d3e 36cd 153d 076a afbe 5a6b 92be
000000f0: 1800 a23e 08bf 84bd 8c37 23bf d6fa 85be
00000100: 7bdc cebe 1760 193f 5782 6f3e 467f e5bd
00000110: 7e82 b5be a8a6 1fbf 14c3 1ebd 9bd1 8dbd
00000120: c953 833e 08b6 b93e 2825 0c3e ddad abbd
00000130: 595e 5b3e 26b4 723e 08a8 213e cbd7 d93e
00000140: adf3 5f3e 3759 84bf d7cf 13bf 00bd d03d
00000150: 7071 c9be 2a89 c13e d3eb 20bf 743d 30bf
00000160: 5e7d d7bd 1838 f2be bd53 afbe f6cb 3e3e
00000170: dbef 1f3c c697 9e3d 64f1 3fbf 1387 b53e
00000180: ddf9 86be 1ee7 b63d 8076 0bbb 2e71 083e
00000190: 2f1d 78be d19e 133e 4daf a9be df03 cdbd
000001a0: ff6e 193f 5d3f a5be 4e38 01bf c137 14bf
000001b0: 2cab a63e 41cd dcbe bb6c 36bf c127 df3c
000001c0: 7f38 c43e acc2 78be 6163 e63e 3947 ac3e
000001d0: 7c59 0f3e b59e 11bf 1561 6cbf 2d0e 303e
000001e0: 04cd df3d 4768 263e c7b4 eb3e f917 acbe
000001f0: 7cb0 1f3e 05b1 36be 66b6 c6be 39cd b1bd
00000200: 1faf a73b c33a 703e bc8b 063f 62dc 5b3e
00000210: 6a6c 6fbe 340f a83d c566 5dbf 58f7 b53e
00000220: 981e 733e 64a0 89be 9fde fcbd b04f f4be
00000230: 1562 d93e 0d24 e5bd cc9d 9dbf 4bed 48bf
00000240: 6b84 913d 684d f6be 307f 46bf 9e12 aabe
00000250: 7467 a93e 6464 a73d 7625 73be 0034 a0bf
00000260: 727b 123d f69d 2fbe 8e6a 493d ba21 b63e
00000270: 2995 81bd e6f0 1abf d2dd aebe 34b0 00bf
00000280: 9b1a 80be 2961 8bbe 9468 88bf 2e96 bcbe
00000290: c402 bbbf bc89 b13e 55d5 503e 3869 b53d
000002a0: 839b 403e 9d01 00bf 3aad de3e c2d4 28bf
000002b0: a35d 3dbd 00e5 d93c f030 3dbe 915c f138
000002c0: f3af 9e3e 26be 6ebe 7ec5 43bf 3cd9 6dbe
000002d0: 6e76 91bc b7e9 38be 9966 21bf 2ff1 6dbe
000002e0: 4d2a 033e 8e68 37bd d943 983e 9097 eebe
000002f0: 4e3e bebe 44de 83bf 28e7 16bf 9b6f 633e
00000300: 3486 00be 8ce7 7f3d c566 593e f102 b1bd
00000310: f5ae 91bd 1498 29be 70d2 b9bc b0b1 783e
00000320: 4fa5 7dbd 40b8 383f a32f 46bf c7e5 33bf
00000330: 45ff f5be 0694 f73e 4512 27bd 5cdf d93e
00000340: c006 4c3e c4a3 5dbe 00ac 8b3e 80cd 023e
00000350: 880f 20bf 73a5 7e3e d497 0dbf 2968 cb3e
00000360: 2db6 3d3c c396 acbe 46f9 edbf 8963 623d
00000370: 4a3a 13bf a054 fa3e a3eb 7f3d 54b4 e0bd
00000380: 9bd2 72be ecb8 4abe f0a3 43bd e2e8 8dbf
00000390: d6a7 013f 2abd b73d e16a 1abf 8b56 83be
000003a0: de25 15be 24a3 7f3e 5820 093e 5900 823e
000003b0: 0a6b 75bf 2cf5 02be 45df b23e 5d93 4c3e
000003c0: a6c3 6b3e 31ac bfbe 0491 6b3d 6930 c83d
000003d0: 346d 223e f1a8 76bf 03ab 53bb 808c f0be
000003e0: d2bd 45be b8bc 503e 7817 533d c2e8 f0bd
000003f0: 19b1 41bf 0b43 bebd 43ef c73d dfdf 463c
