Foodcy/v1/app/src/main/ml/food.tflite (tflite, 12120 bytes, 8 tensors)

sequential_1/dense_4/BiasAdd/ReadVariableOp/resource f4 [40]
0.19348906 0.092725426 0.15948449 0.20011978 -0.021609882 0.0 0.11608336 0.09723569
0.25134665 0.0 0.271175 0.13214932 0.0 0.0 0.17021078 -0.031904448
0.055630423 0.07765441 0.043866318 0.2840026 0.09808906 -0.10682785 0.2603525 0.0692598
0.07529471 0.101903215 0.0 0.014924905 0.17895667 0.0 -0.014346314 0.15285863
0.0 0.11445285 0.14846139 0.17937388 0.13033582 -0.013680013 0.08215479 0.24557677
00000000: ff21 463e d4e6 bd3d e74f 233e 33ec 4c3e
00000010: 3507 b1bc 0000 0000 1dbd ed3d 8123 c73d
00000020: 82b0 803e 0000 0000 73d7 8a3e 2752 073e
00000030: 0000 0000 0000 0000 bc4b 2e3e 3dae 02bd
00000040: badc 633d 4609 9f3d 2bad 333d ca68 913e
00000050: ebe2 c83d 8fc8 dabd ec4c 853e 15d8 8d3d
00000060: 1d34 9a3d a2b2 d03d 0000 0000 9787 743c
00000070: 6b40 373e 0000 0000 cd0c 6bbc f986 1c3e
00000080: 0000 0000 4166 ea3d 4306 183e c9ad 373e
00000090: c176 053e 2222 60bc c540 a83d 7a78 7b3e

sequential_1/dense_5/BiasAdd/ReadVariableOp/resource f4 [25]
0.0 0.12572914 0.24913262 0.10072893 0.04892885 0.06973489 0.0537443 -0.008197739
0.22050285 0.19544165 -0.07520426 -0.05240735 0.022607062 0.16513908 0.16048706 0.07938745
-0.02415959 0.0620067 0.09940464 0.012461062 0.15239328 0.06049168 0.076758236 0.011143833
0.18056089
00000000: 0000 0000 24bf 003e 9f1c 7f3e f84a ce3d
00000010: 9e69 483d 2ad1 8e3d fc22 5c3d cf4f 06bc
00000020: 80cb 613e db21 483e b104 9abd 17a9 56bd
00000030: 7232 b93c 381a 293e b856 243e e395 a23d
00000040: 55ea c5bc bdfa 7d3d a994 cb3d 7b29 4c3c
00000050: fc0c 1c3e 20c6 773d 6c33 9d3d a094 363c
00000060: f4e4 383e

sequential_1/dense_6/BiasAdd/ReadVariableOp/resource f4 [25]
-0.046320155 0.14327693 0.014785809 0.08684701 0.06459224 -0.02744297 0.09735169 0.06756803
-0.036711775 -0.064274184 0.11223234 0.017587654 0.19732323 0.08161079 -0.07227214 0.12644644
0.008176319 0.13618 -0.07262438 0.120144956 0.097534694 0.0 0.106260076 0.112557575
-0.019550484
00000000: 34ba 3dbd 30b7 123e 2e40 723c d8dc b13d
00000010: f048 843d 14d0 e0bc 5360 c73d 1b61 8a3d
00000020: 165f 16bd 2fa2 83bd 12da e53d fc13 903c
00000030: 1a0f 4a3e 8f23 a73d 6a03 94bd 2d7b 013e
00000040: f8f5 053c c572 0b3e 17bc 94bd 8f0e f63d
00000050: 45c0 c73d 0000 0000 e29e d93d 9684 e63d
00000060: 5628 a0bc

sequential_1/dense_7/BiasAdd/ReadVariableOp/resource f4 [20]
0.05742404 -0.018495912 -0.005066161 -0.06465404 -0.028797543 0.021188574 -0.13403028 0.01226291
0.059480604 -0.045985483 -0.09505871 0.10686373 -0.12546587 0.07439035 0.15935679 0.013239384
-0.11636293 0.046610214 -0.12057361 -0.0056577045
00000000: 7835 6b3d bd84 97bc 0a02 a6bb 5669 84bd
00000010: d3e8 ebbc a993 ad3c 3c3f 09be 5fea 483c
00000020: efa1 733d 465b 3cbd 24ae c2bd 5fdb da3d
00000030: 207a 00be f859 983d 6d2e 233e 00ea 583c
00000040: b04f eebd 5aea 3e3d 4cef f6bd 4464 b9bb

sequential_1/dense_4/MatMul f4 [40, 6]
-0.061023545 -1.2815139 0.12971054 0.29643518 0.41636866 0.3652733 -0.030861964 -1.0228649
-0.56488097 0.4125934 -0.21107084 0.2707717 0.18943918 -1.3831296 -0.26436368 0.3821374
0.0965881 0.07156622 0.052908134 0.11368585 0.6912497 -0.11502151 0.58120126 -0.4703574
-0.21564588 0.05566209 -0.2028631 -0.33514768 -0.20761661 0.14614083 -0.07638317 -0.17692752
0.22736433 -0.020508796 -0.17234896 -0.33845615 0.044705827 0.016031247 -0.63570344 -0.4906086
-0.046344444 0.44726822 -1.0148226 -0.97370136 -0.1410803 0.3621292 0.16435866 -0.67034155
-0.66442746 -0.6638372 -0.18375972 0.46413773 0.031422872 0.36685258 -0.26908654 -0.15320918
-0.12884314 -0.33088538 -0.17695042 0.060228527 0.78737074 0.42834312 -0.7738381 0.5439812
-0.12148222 0.7621526 0.72247374 0.6557579 -0.55302185 -0.41578713 0.42300197 -0.16860215
-0.1899602 0.17175421 0.22032496 0.1273565 -0.3314988 -0.29590532 -0.04822138 -0.33479077
0.055950046 0.018230319 -0.07403159 0.027084768 -0.7191519 0.28811312 -0.26384538 0.4496141
0.25809452 -0.3497691 0.85953635 1.0183692 0.53656137 0.21321179 0.008145604 -0.4678117
0.6858252 0.35082826 0.5794495 -0.50617856 0.16233495 0.034600742 0.6398661 0.29489937
0.37432116 0.32737514 0.10562675 -0.45678183 0.5489935 0.16487853 0.05157404 -0.3936237
-0.15185463 0.5138338 -0.7273638 -0.27015772 -0.4849507 -0.2916207 0.46436974 0.06601255
-0.9721352 0.56677836 -0.46799543 0.49382246 0.38467783 -0.0011160189 -0.36515293 1.0041248
0.11135697 0.21039656 0.3331296 -0.5770018 -0.632803 0.75611705 0.16790552 0.082214214
0.5456782 0.22575419 0.6667605 0.99075943 -0.5406692 0.13465099 0.04545746 0.4978676
0.06966731 0.79244965 0.37274238 0.48761153 0.28632665 -0.00038499653 0.555867 0.6935395
0.7885083 -0.44096336 0.49688926 -0.12952887 0.12580287 -0.12642673 -0.30716816 -0.12945285
-0.19798791 -0.079339296 0.40166023 -1.336871 -0.5684992 -0.12727542 0.061087135 0.25068954
-0.44066522 -0.71177554 -0.39311814 -0.10729016 0.34353492 0.64234614 -0.3158341 0.062209666
-0.024282515 -0.3293327 -0.11334531 -0.27304858 -0.4249891 0.79850936 0.028311687 -0.44432905
0.138523 0.3412798 0.7879233 -0.68798566 0.34370932 0.42928368 -0.41132104 0.14196098
-0.3441787 -0.080096245 -0.049078047 0.14360353 -0.28402 -0.034122854 0.32514304 -1.0966973
-0.52075446 0.2581932 0.34708166 -0.12524928 0.5755472 0.29035413 0.51028085 0.37645298
-0.2850705 0.4262954 0.16389768 -0.84021443 0.52183205 0.4462479 0.3383272 0.3244939
-0.71624666 1.1161934 0.29836535 0.53738546 0.37785164 -0.42920133 0.7766999 0.69381523
-0.1910747 -0.39189827 0.239393 -0.28974584 -0.50872207 0.11901831 0.5372408 -0.3606221
-0.05169238 0.59961945 0.9516445 -0.2702909 0.37040263 0.37522677 0.47856253 0.23048909
00000000: d3f3 79bd a608 a4bf d7d2 043e 5ac6 973e
00000010: 462e d53e 1a05 bb3e 3bd2 fcbc 3ded 82bf
00000020: 0a9c 10bf 713f d33e f422 58be 97a2 8a3e
00000030: 58fc 413e 640a b1bf ad5a 87be 83a7 c33e
00000040: fbcf c53d 4f91 923d 33b6 583d 20d4 e83d
00000050: bef5 303f 6690 ebbd 9bc9 143f afd2 f0be
00000060: 46d2 5cbe effd 633d 58bb 4fbe 7a98 abbe
00000070: 7399 54be f1a5 153e c86e 9cbd 7d2c 35be
00000080: 32d2 683e 1002 a8bc 3f7c 30be 204a adbe
00000090: 751d 373d f653 833c 76bd 22bf 0d31 fbbe
000000a0: acd3 3dbd 5700 e53e b5e5 81bf 7e44 79bf
000000b0: 5b77 10be 0069 b93e a34d 283e 819b 2bbf
000000c0: eb17 2abf 3cf1 29bf 822b 3cbe 76a3 ed3e
000000d0: 45b5 003d 1ad4 bb3e b6c5 89be dee2 1cbe
000000e0: 75ef 03be cf69 a9be 7e32 35be 30b2 763d
000000f0: 2191 493f ca4f db3e 411a 46bf 5a42 0b3f
00000100: accb f8bd 6f1c 433f 0af4 383f c0df 273f
00000110: d792 0dbf 0de2 d4be b793 d83e 0ba6 2cbe
00000120: ed84 42be 56e0 2f3e de9c 613e be69 023e
00000130: 36ba a9be e780 97be c883 45bd b269 abbe
00000140: e02b 653d c057 953c e09d 97bd e0e0 dd3c
00000150: 571a 38bf 9083 933e be16 87be d233 e63e
00000160: f724 843e ef14 b3be 930a 5c3f ec59 823f
00000170: 165c 093f 3154 5a3e 2475 053c 0485 efbe
00000180: 3e92 2f3f c39f b33e cd56 143f eb94 01bf
00000190: 223b 263e 82b9 0d3d 44ce 233f 0dfd 963e
000001a0: 06a7 bf3e b79d a73e d652 d83d 4fdf e9be
000001b0: d78a 0c3f ebd5 283e 4d3f 533d 0c89 c9be
000001c0: c87f 1bbe 9d8a 033f 8434 3abf 1d52 8abe
000001d0: 754b f8be 4f4f 95be dfc1 ed3e 9631 873d
000001e0: dadd 78bf 6318 113f 199d efbe 4cd6 fc3e
000001f0: 7ef4 c43e 6147 92ba 53f5 babe 2987 803f
00000200: 200f e43d 3272 573e f78f aa3e 64b6 13bf
00000210: 61ff 21bf e390 413f 6def 2b3e ed5f a83d
00000220: 91b1 0b3f 1b2c 673e d1b0 2a3f 69a2 7d3f
00000230: 4c69 0abf f3e1 093e 9a31 3a3d 81e8 fe3e
00000240: bcad 8e3d fbdd 4a3f 17d8 be3e 38a8 f93e
00000250: 6899 923e 5cd9 c9b9 4d4d 0e3f ce8b 313f
00000260: aedb 493f f3c5 e1be 4568 fe3e 37a3 04be
00000270: 78d2 003e 0276 01be 2545 9dbe 4a8f 04be
00000280: 58bd 4abe a47c a2bd 69a6 cd3e 971e abbf
00000290: 2a89 11bf 7d54 02be 8136 7a3d 615a 803e
000002a0: df9e e1be ec36 36bf c846 c9be f2ba dbbd
000002b0: cfe3 af3e cc70 243f 02b5 a1be 90cf 7e3d
000002c0: 20ec c6bc 4c9e a8be 9621 e8bd 06cd 8bbe
000002d0: 2c98 d9be 1c6b 4c3f e9ed e73c 197f e3be
000002e0: f9d8 0d3e 3abc ae3e 57b5 493f d41f 30bf
000002f0: abfa af3e 12cb db3e ac98 d2be 385e 113e
00000300: 3138 b0be 8009 a4bd 1006 49bd ce0c 133e
00000310: 126b 91be 68c4 0bbd 2679 a63e 9460 8cbf
00000320: 2a50 05bf e631 843e b0b4 b13e 5941 00be
00000330: 1057 133f 4ca9 943e c4a1 023f 72be c03e
00000340: c3f4 91be 6443 da3e cbd4 273e 4b18 57bf
00000350: c996 053f 9b7a e43e 3939 ad3e 1124 a63e
00000360: f15b 37bf 6ddf 8e3f 58c3 983e 1892 093f
00000370: c575 c13e 47c0 dbbe ced5 463f e09d 313f
00000380: 16a9 43be e4a6 c8be 7023 753e 9159 94be
00000390: 9c3b 02bf dfbf f33d 9d88 093f 76a3 b8be
000003a0: 64bb 53bd a980 193f f99e 733f 9263 8abe
000003b0: 6aa5 bd3e b91d c03e 2606 f53e 5505 6c3e

sequential_1/dense_5/MatMul f4 [25, 40]
-0.17531152 -0.05224386 0.09418228 -0.10245426 0.2398789 -0.0927473 0.028455704 -0.14534494
-0.29517516 -0.07734355 0.018362343 0.075357765 -0.26107448 0.06767666 -0.21270105 -0.12477268
-0.24241391 0.056686908 0.14247957 -0.26145652 0.10051593 0.26299137 -0.23749667 -0.22621052
0.019642323 0.19196284 0.14151296 0.10639179 -0.1987012 -0.07391751 -0.04636076 -0.06978297
0.19714606 -0.16810827 0.19658208 -0.23452842 -0.08411959 -0.2982922 0.2572136 0.28235066
0.3566364 -0.30475357 0.45590207 0.26398855 0.016827941 -0.17253894 -0.12219779 0.8988825
0.42189607 0.23879987 -0.002639686 0.12755834 -0.094474494 0.20337927 0.661051 -0.56823957
-0.5814809 -0.27299973 -0.3814373 0.27206886 0.446925 -0.11273823 0.16934098 -0.4225987
-0.10062696 -0.07483855 -0.27057245 -0.24974169 0.41971952 0.0019944608 -0.613409 -1.4210058
-0.24309756 0.670883 -0.6861655 -0.049993057 0.114959694 -0.45833883 -0.7000932 0.16607784
0.49899712 -0.17054461 0.62778807 0.42775583 -0.2615638 -0.05636297 0.35303748 -0.08756109
0.20520872 0.04481584 0.10723375 0.5618339 -0.2663334 0.25026715 -0.2964501 -0.23645024
0.35462528 -0.13342406 0.06881945 0.4720633 -0.09066708 -0.10852233 0.40207312 0.21234976
0.117557645 0.20815755 -0.25658086 0.2573133 0.65725225 -0.25365797 -0.19081572 -0.54480493
0.0038048923 0.22357367 -0.26288152 0.53569657 -0.023186324 0.32787767 0.3015277 0.31941912
-0.12980375 -0.47583565 -0.4093721 0.19645372 0.1727046 -0.18852109 -0.25266752 0.20796974
-0.15014443 0.11581299 -0.1575475 0.46857706 0.14159322 0.21033925 0.7095885 0.26446265
-0.30631328 0.32372245 -0.5801779 0.15028621 0.63876045 0.33896878 0.45217893 0.42910773
0.07087023 -0.09431733 -0.107668996 -0.97389096 0.043862585 0.06732947 0.04552913 -1.5665765
-0.049510658 0.06661573 -0.32312053 -0.092860945 0.67196745 0.14787865 -0.48840865 -0.004824988
0.38516784 0.7806203 0.4437776 -0.32375327 -0.014269322 0.08345091 0.2816448 0.0696711
0.52968866 0.0035278797 0.31104657 0.04763133 -0.090135455 0.2786067 0.20199655 -1.0319022
-0.39156374 -0.24068435 -0.1809165 0.16373369 0.18713807 -0.3730693 0.031160994 0.28644067
-0.03647936 -0.43141803 0.11097312 1.1759114 0.11744602 -0.004804164 -0.6569581 0.35926044
0.18591562 0.30596104 -0.065408185 -0.14162426 -0.4685988 -0.58068675 -0.29085562 -0.2423702
0.012750372 0.18880828 -0.20867294 -0.55334723 0.1533505 0.04304388 0.36658913 -0.29165313
-0.09699017 0.07742685 0.2974561 0.08513121 -0.2637201 -0.09626679 -0.09217357 0.51782304
-0.104506165 -0.42347392 0.5374837 -0.36520922 0.042000253 0.061951287 -0.17221172 0.6332218
0.103802115 0.12937629 -0.21553138 -0.40617594 0.22195458 -0.19666341 0.89372087 0.37868953
0.093981415 -0.39857695 0.42337757 0.28696835 -0.111300096 0.2477658 0.3961979 -0.2022889
0.526637 0.7650981 0.42331076 0.09967519 0.24618989 -0.12783922 -0.26978615 -0.32398793
0.10982655 0.1506513 0.15389101 -0.18957935 0.14021099 -0.25433967 -0.3275062 0.0930341
00000000: dd84 33be a8fd 55bd a4e2 c03d 8ad3 d1bd
00000010: d0a2 753e 4cf2 bdbd f01b e93c 4ed5 14be
00000020: 3321 97be 4c66 9ebd a06c 963c 2c55 9a3d
00000030: 8eab 85be 109a 8a3d 4ece 59be d288 ffbd
00000040: 5a3b 78be 8830 683d 2ae6 113e a1dd 85be
00000050: 4cdb cd3d cea6 863e 5432 73be bba3 67be
00000060: f0e8 a03c e891 443e c6e8 103e f0e3 d93d
00000070: 5478 4bbe 1062 97bd c8e4 3dbd 60ea 8ebd
00000080: a8e0 493e 9324 2cbe d04c 493e 3828 70be
00000090: e446 acbd c1b9 98be 80b1 833e 4490 903e
000000a0: 0c99 b63e a908 9cbe ff6b e93e 8229 873e
000000b0: c0da 893c 0cae 30be d642 fabd 2a1d 663f
000000c0: c302 d83e f487 743e 95fe 2cbb a79e 023e
000000d0: d87b c1bd a842 503e a33a 293f 2678 11bf
000000e0: efdb 14bf 9fc6 8bbe c04b c3be 9c4c 8b3e
000000f0: 5bd3 e43e 4de3 e6bd b967 2d3e db5e d8be
00000100: 8215 cebd f444 99bd 7988 8abe 49bc 7fbe
00000110: 7ae5 d63e 80b5 023b 5f08 1dbf 85e3 b5bf
00000120: 91ee 78be fdbe 2b3f 8ba8 2fbf 85c5 4cbd
00000130: fd6f eb3d 63ab eabe 4f39 33bf 4f10 2a3e
00000140: 8d7c ff3e 3fa3 2ebe b8b6 203f d002 db3e
00000150: b1eb 85be dcdc 66bd 54c1 b43e 3b53 b3bd
00000160: 3c22 523e d090 373d 5e9d db3d 59d4 0f3f
00000170: da5c 88be 0423 803e 4fc8 97be 0320 72be
00000180: 7291 b53e 51a0 08be 36f1 8c3d 48b2 f13e
00000190: a9af b9bd f540 debd 87dc cd3e 3772 593e
000001a0: 10c2 f03d 4127 553e 915e 83be 92be 833e
000001b0: af41 283f 75df 81be 3265 43be 5678 0bbf
000001c0: 805b 793b 7ff0 643e 6898 86be 6923 093f
000001d0: 3ff1 bdbc 95df a73e d761 9a3e e78a a33e
000001e0: 46eb 04be bba0 f3be 3899 d1be 2a2b 493e
000001f0: 7ad9 303e ac0b 41be a35d 81be 05f6 543e
00000200: 76bf 19be 5c2f ed3d 2254 21be 55e9 ef3e
00000210: d0fd 103e 2c63 573e 98a7 353f a667 873e
00000220: 18d5 9cbe f3be a53e 8a86 14bf a1e4 193e
00000230: ce85 233f 518d ad3e ff83 e73e 02b4 db3e
00000240: 6924 913d 7229 c1bd 9081 dcbd eb50 79bf
00000250: 41a9 333d 08e4 893d c17c 3a3d 9485 c8bf
00000260: b0cb 4abd d46d 883d 0e70 a5be e12d bebd
00000270: 0f06 2c3f 806d 173e b310 fabe ef1a 9ebb
00000280: b834 c53e bbd6 473f d136 e33e fdc2 a5be
00000290: e0c9 69bc 50e8 aa3d bf33 903e b9af 8e3d
000002a0: ad99 073f 0034 673b 7f41 9f3e 1219 433d
000002b0: f098 b8bd 8aa5 8e3e 2fd8 4e3e 5f15 84bf
000002c0: 0b7b c8be f575 76be 2d42 39be cea9 273e
000002d0: 1fa1 3f3e f002 bfbe 5745 ff3c 5aa8 923e
000002e0: 626b 15bd d3e2 dcbe e045 e33d 4484 963f
000002f0: 8a87 f03d 406c 9dbb 682e 28bf fcf0 b73e
00000300: aa60 3e3e eda6 9c3e baf4 85bd f305 11be
00000310: 2fec efbe e3a7 14bf 07eb 94be e52f 78be
00000320: f0e6 503c f556 413e 5cae 55be 2aa8 0dbf
00000330: ea07 1d3e c84e 303d 92b1 bb3e 8f53 95be
00000340: c8a2 c6bd f891 9e3d 2a4c 983e 4659 ae3d
00000350: 5206 87be 8627 c5bd 7fc5 bcbd 0d90 043f
00000360: 5407 d6bd 93d1 d8be 8898 093f b4fc babe
00000370: 7508 2c3d a2c0 7d3d 4558 30be d31a 223f
00000380: 3496 d43d 387b 043e 42b4 5cbe 4bf6 cfbe
00000390: 1048 633e 2262 49be e4ca 643f 98e3 c13e
000003a0: 5479 c03d 4712 ccbe f2c4 d83e 84ed 923e
000003b0: 4ef1 e3bd 51b6 7d3e 73da ca3e d224 4fbe
000003c0: afd1 063f 78dd 433f 30bc d83e 8222 cc3d
000003d0: 3419 7c3e 49e8 02be 6921 8abe bfe1 a5be
000003e0: beec e03d 5644 1a3e 9b95 1d3e 1721 42be
000003f0: 7893 0f3e cf38 82be e5ae a7be aa88 be3d

sequential_1/dense_6/MatMul f4 [25, 25]
-0.22451746 -0.43789294 -0.006674379 0.12766807 0.134424 -0.3831497 -0.12679306 -0.26659176
-0.63139325 0.13815296 0.26185578 -0.38721117 -0.22080494 -0.13146631 -0.66444993 0.48451614
0.2944832 -0.7427555 0.1467525 0.34891963 -1.1114339 0.3761845 0.5038099 0.06131249
0.21909216 0.34182572 0.40609986 0.28392032 -0.20647584 0.21743718 -0.5171216 0.15026353
-0.060717225 0.3091373 0.083560206 -0.2084115 -0.7941482 -0.5006058 0.36063442 -0.2749559
-0.23819408 0.19734505 -0.1740644 -0.47773677 1.0807248 0.2483462 0.2313085 -0.1018912
-0.38531765 0.3316066 0.07783878 -0.4522013 0.12798457 -0.41553125 0.27422357 0.5511195
0.21659094 -0.28543746 -0.05699452 0.17532925 -0.22796617 -0.20539264 0.6869365 0.09647922
0.49257222 -0.7211577 -0.71876204 0.22226065 -0.25316212 -0.40824154 0.39707077 0.34614256
-0.3750391 -0.7994056 0.40242645 -0.21098475 -0.66578573 0.3410331 -0.30348063 -0.31671962
0.69563144 0.40961203 -0.44466978 0.64817786 -0.05493866 0.78322273 -0.8985795 -0.17526445
-0.21497038 0.19125354 -0.36708242 0.14775318 0.35799044 -0.28835082 0.944359 0.013807814
0.1549642 0.12238048 0.43153208 0.050496068 -0.20830385 -0.5021115 0.47733957 0.07948977
-0.8753198 0.14217032 -0.18883345 -0.07428554 -0.14491966 0.4181083 0.12798612 0.84586555
-0.36403593 -0.10991941 0.14543025 0.289843 0.41237643 0.19137904 0.13176413 -0.42911145
-0.5257986 0.62933517 0.3970939 0.7741282 -0.03919679 0.18415874 -0.15259296 -0.06640224
0.07774424 -0.2560334 -0.15944217 0.06659257 0.2183076 0.22928992 -0.025206238 -0.29641244
-0.116655834 -0.20034699 -0.2305074 0.0884374 -0.124383405 0.079152286 -0.33600354 -0.1479571
-0.0056967423 -0.06124705 -0.33746475 0.15230975 -0.071325 0.19619435 0.3219943 0.1969675
0.40179127 -0.34178078 0.28127417 -0.34201992 -0.10085512 0.35775876 0.66880697 -0.3694179
0.2512333 -0.11074513 0.15498494 0.17465013 0.08558867 0.3529622 0.36348185 0.3415509
0.124452576 -0.2565088 -0.11843992 -0.7698529 0.47254828 -0.17156142 -0.16621675 0.029132098
0.38382095 0.27680764 -0.14533544 0.15371256 -0.26804826 0.56947815 0.55374193 -0.107998915
0.44142643 -0.3859939 -0.4501287 -0.021862686 0.2526283 -0.045275435 0.5679017 -0.10859218
0.19482431 0.40100798 -0.9080693 -0.15074131 0.102379985 -0.22946817 -0.3275248 0.4572811
0.20047402 0.51705414 0.0148876365 -0.44641355 0.5869963 0.030852407 -0.090816796 -0.37525073
0.32401186 0.112240605 0.08280754 -0.06962104 -0.2202195 -0.048936397 0.59678733 -0.5499648
0.17200682 0.7939125 -0.48096058 -0.30741155 0.38770947 0.023829417 0.11690201 -0.4016397
0.08612687 0.29599005 0.35478112 0.36005193 0.20170577 -0.5411642 0.3633665 0.08364706
-0.18808478 -0.32960376 0.25334278 0.5192693 0.51853436 -0.52050024 -0.060849477 -0.024311734
0.26568073 0.5585573 0.6117552 -0.3746685 0.6652986 -0.17485899 0.3047661 -0.3928618
0.31274384 -0.01502138 -0.25108895 0.4954484 0.40161377 0.21494952 -0.26737377 -0.20591047
00000000: e8e7 65be 8133 e0be c0b4 dabb 6bbb 023e
00000010: 72a6 093e 332c c4be 0ad6 01be b77e 88be
00000020: fda2 21bf f877 0d3e f611 863e 8b40 c6be
00000030: b11a 62be 1b9f 06be 6419 2abf 8012 f83e
00000040: 81c6 963e 3925 3ebf 4a46 163e 98a5 b23e
00000050: 7743 8ebf 419b c03e b0f9 003f ce22 7b3d
00000060: b259 603e c803 af3e 52ec cf3e 015e 913e
00000070: 676e 53be daa7 5e3e 1562 04bf afde 193e
00000080: a0b2 78bd 3f47 9e3e 9d21 ab3d d369 55be
00000090: 4c4d 4bbf b427 00bf 13a5 b83e 05c7 8cbe
000000a0: 26e9 73be d214 4a3e f03d 32be ea99 f4be
000000b0: 3155 8a3f 774e 7e3e 23dc 6c3e 55ac d0bd
000000c0: 5b48 c5be 57c8 a93e f069 9f3d ee86 e7be
000000d0: 630e 033e 83c0 d4be 0867 8c3e 2b16 0d3f
000000e0: 04ca 5d3e dc24 92be 1673 69bd 8389 333e
000000f0: f76f 69be 7352 52be 12db 2f3f e696 c53d
00000100: 6d32 fc3e cb9d 38bf ca00 38bf 4c98 633e
00000110: 779e 81be 0905 d1be dc4c cb3e 9939 b13e
00000120: 2005 c0be d8a5 4cbf d70a ce3e 630c 58be
00000130: ef70 2abf e49b ae3e d061 9bbe 1329 a2be
00000140: e714 323f abb8 d13e c2ab e3be fcee 253f
00000150: 5c07 61bd 4981 483f 4e09 66bf 8678 33be
00000160: 3221 5cbe f8d7 433e 3af2 bbbe 9c4c 173e
00000170: 864a b73e b8a2 93be 83c1 713f 2b3a 623c
00000180: efae 1e3e 9ea2 fa3d c6f1 dc3e f7d4 4e3d
00000190: 9b4d 55be 618a 00bf da65 f43e 88cb a23d
000001a0: f514 60bf 1995 113e 8e5d 41be 0423 98bd
000001b0: d265 14be 4b12 d63e cb0e 033e a58a 583f
000001c0: eb62 babe 6d1d e1bd abeb 143e 4d66 943e
000001d0: 0123 d33e def8 433e 2ded 063e 7fb4 dbbe
000001e0: bd9a 06bf 1c1c 213f e44f cb3e 442d 463f
000001f0: d08c 20bd 1c94 3c3e 5441 1cbe e6fd 87bd
00000200: 5f38 9f3d cf16 83be cf44 23be af61 883d
00000210: 078c 5f3e faca 6a3e 507d cebc 5fc3 97be
00000220: 41e9 eebd c327 4dbe 220a 6cbe ab1e b53d
00000230: babc febd 981a a23d a808 acbe 1182 17be
00000240: bdab babb 30de 7abd 2ec8 acbe 16f7 1b3e
00000250: d712 92bd 2ce7 483e 70dc a43e d9b1 493e
00000260: 96b7 cd3e e4fd aebe 2b03 903e 3c1d afbe
00000270: 218d cebd 282c b73e ef36 2b3f 5824 bdbe
00000280: a7a1 803e 58ce e2bd 5fb4 1e3e 7cd7 323e
00000290: 1d49 af3d 76b7 b43e 4b1a ba3e c2df ae3e
000002a0: fee0 fe3d 1f55 83be a190 f2bd 1415 45bf
000002b0: d9f1 f13e ccad 2fbe b934 2abe 70a6 ee3c
000002c0: 2e84 c43e bbb9 8d3e d0d2 14be d366 1d3e
000002d0: 9f3d 89be 52c9 113f 08c2 0d3f 892e ddbd
000002e0: a502 e23e fea0 c5be 4577 e6be 6019 b3bc
000002f0: 7f58 813e bc72 39bd 0162 113f 9465 debd
00000300: 0680 473e eb50 cd3e 3b77 68bf ee5b 1abe
00000310: 99ac d13d b4f9 6abe 55b1 a7be c020 ea3e
00000320: 1049 4d3e a95d 043f 46eb 733c 5190 e4be
00000330: 6445 163f 30be fc3c 28fe b9bd dd20 c0be
00000340: e2e4 a53e 67de e53d 0097 a93d 7a95 8ebd
00000350: 3881 61be 8871 48bd 0ec7 183f 7eca 0cbf
00000360: 8e22 303e d93d 4b3f 7740 f6be 0c65 9dbe
00000370: db81 c63e e935 c33c 526a ef3d b8a3 cdbe
00000380: 4963 b03d 028c 973e dfa5 b53e ba58 b83e
00000390: f58b 4e3e bd89 0abf 2d0b ba3e 264f ab3d
000003a0: 4c99 40be d3c1 a8be 25b6 813e d5ee 043f
000003b0: abbe 043f 813f 05bf 4d3d 79bd 6729 c7bc
000003c0: 4e07 883e 9cfd 0e3f fd9b 1c3f 8dd4 bfbe
000003d0: 0251 2a3f 3c0e 33be 4d0a 9c3e 2f25 c9be
000003e0: f61f a03e 3c1c 76bc bb8e 80be 6aab fd3e
000003f0: 52a0 cd3e ba1b 5c3e 37e5 88be 32da 52be

sequential_1/dense_7/MatMul f4 [20, 25]
-0.52949065 0.26115555 0.011031549 -0.74425244 -1.0247182 -0.17053273 0.2709321 0.3750833
0.096140705 -0.74985707 0.08310654 -0.103785895 -1.5195378 -0.23258248 -1.0259811 0.20600608
-0.3852584 0.29288572 -0.25310865 0.576377 0.46283856 -0.07957819 0.112449735 -0.37375933
-0.30497512 0.5443246 0.67014444 -0.4284341 -0.09911739 0.13091251 -0.2526838 -1.0151086
0.35853174 -0.023360375 0.16223939 -0.9084907 0.4911549 -0.525255 -0.27445912 -0.78467673
0.09963088 0.34936342 -0.30501932 0.12656686 -1.0364028 -0.66216993 -0.3501943 -0.4975772
-0.24308747 -0.23875734 -0.48615623 -0.14030941 0.14916232 -0.08321839 0.15413785 0.16364765
-0.86736256 0.10044241 -0.06372496 -0.24668558 0.14271057 -0.16262321 -1.0045736 -0.15300733
0.59234166 0.35927412 -0.68289626 -0.110872276 -0.3085144 -0.4215925 -0.043714415 -0.2170984
-0.3302076 0.17973192 -0.10944992 -0.14456429 0.032146912 0.16764899 -0.43634573 -0.06433881
-0.34444818 0.18062313 -0.27423453 0.04463063 -0.89392465 -0.018497912 0.7067649 0.21366057
-1.2263074 0.18856512 -0.33085948 -0.6686683 -0.5477256 0.466979 0.47340536 0.3868849
0.124417424 0.2170095 -0.35916665 0.0651164 -0.09880518 0.38822842 -0.40425572 0.24932037
-0.3645491 -0.096239805 -0.5563845 -0.18277957 -0.19166116 0.43665543 -0.19873185 0.468419
-0.07684186 0.12101941 0.16673374 -0.31733498 0.12678698 -0.38157946 0.3832902 -0.28146628
0.26966417 0.22104144 -0.46512163 -0.19170605 0.19846323 -0.5913211 -0.87516755 -0.118553974
0.00110866 0.48918703 0.31596133 0.39163882 0.26297486 -0.46046546 -0.13523237 -0.90597534
0.36757195 -0.54078996 -0.6060917 0.29814234 -0.29266733 0.19047573 -0.4873346 -0.049129885
-0.05879513 0.30801877 0.29297417 0.02819226 0.32352504 -0.21810488 -0.21515366 -0.113927774
0.2689798 0.34315032 -0.5699263 -0.28078914 0.16911966 -0.4958315 0.37971258 -0.022157447
-0.20805643 -0.5860796 0.12966685 -0.77658707 -0.16460362 -0.15822272 -0.5233447 -0.2791467
0.007196426 -0.35010418 0.19025886 0.07105765 -0.35725644 0.018692523 0.25532606 -0.38596335
-0.25664407 0.17219946 0.5342532 -0.09507605 0.07758306 -0.334037 -0.30852014 0.015494105
-0.14747946 -0.3818263 0.21285297 -0.10093795 -0.18829636 -0.43772414 0.26947722 0.38593802
-0.7518179 -0.38755247 -0.25501835 -0.39037684 -0.015648007 0.037390493 0.21505177 -0.29805353
-0.3043602 0.1498683 -0.52666336 -0.09826113 0.18594633 -0.094474986 -1.0993168 0.06092093
-0.78854764 -0.60471445 -0.014958584 0.4679932 -1.1573731 -0.08271276 0.23001859 -0.20905042
0.21518162 0.39786354 0.24495435 -0.4781412 -0.008189383 0.36408406 -0.21324001 0.6073518
0.032173492 -0.6208872 0.23105468 -1.2855846 -0.24429452 0.0040774276 -0.010558973 0.19367833
-0.05008484 0.48542696 0.3363268 0.3167492 -0.15413249 -0.51971346 0.32623985 -0.21540289
-0.08235444 -0.75773233 -0.13716516 -0.8444506 0.22428675 -0.098267816 0.14499098 0.1510395
-1.2318784 -0.23428148 -0.96715677 -0.34977308 -1.0255105 -0.004388148 0.3182524 -0.006053069
00000000: b38c 07bf 2eb6 853e acbd 343c 5487 3ebf
00000010: f729 83bf 22a0 2ebe 9db7 8a3e eb0a c03e
00000020: 6be5 c43d a2f6 3fbf c333 aa3d b38d d4bd
00000030: 3780 c2bf 1a2a 6ebe 5953 83bf 42f3 523e
00000040: 9740 c5be 1ef5 953e 7597 81be 718d 133f
00000050: 2df9 ec3e e4f9 a2bd 0c4c e63d 625d bfbe
00000060: b325 9cbe db58 0b3f 968e 2b3f b75b dbbe
00000070: 0ffe cabd ee0d 063e c55f 81be 14ef 81bf
00000080: 7991 b73e 425e bfbc 1522 263e d992 68bf
00000090: a878 fb3e 1d77 06bf e885 8cbe 93e0 48bf
000000a0: 460b cc3d c3df b23e 7e2b 9cbe be9a 013e
000000b0: d9a8 84bf f883 29bf ab4c b3be 70c2 febe
000000c0: eceb 78be ce7c 74be 78e9 f8be 45ad 0fbe
000000d0: 02be 183e 676e aabd 50d6 1d3e 4093 273e
000000e0: 790b 5ebf c0b4 cd3d 3b82 82bd 259b 7cbe
000000f0: b822 123e b386 26be de95 80bf f4ad 1cbe
00000100: b4a3 173f c7f2 b73e 4ad2 2ebf 0111 e3bd
00000110: 99f5 9dbe f9da d7be e30d 33bd 0b4f 5ebe
00000120: f810 a9be a50b 383e 4827 e0bd a908 14be
00000130: 7bac 033d 2dac 2b3e b568 dfbe 11c4 83bd
00000140: 835b b0be 45f5 383e 7868 8cbe 9cce 363d
00000150: 3fd8 64bf ef88 97bc 8bee 343f d6c9 5a3e
00000160: a4f7 9cbf 3717 413e 6a66 a9be d92d 2bbf
00000170: bf37 0cbf df17 ef3e 3062 f23e c715 c63e
00000180: 90ce fe3d bd37 5e3e b1e4 b7be bf5b 853d
00000190: 5f5a cabd e0c5 c63e 9bfa cebe d74d 7f3e
000001a0: 2ea6 babe 6019 c5bd 376f 0ebf 912a 3bbe
000001b0: d342 44be 4d91 df3e 5d80 4bbe 9dd4 ef3e
000001c0: 445f 9dbd 06d9 f73d 40bc 2a3e bb79 a2be
000001d0: 72d4 013e 625e c3be 9d3e c43e 591c 90be
000001e0: 6c11 8a3e b058 623e 6c24 eebe 974e 44be
000001f0: f239 4b3e d260 17bf fb0a 60bf 6dcc f2bd
00000200: 7550 913a b976 fa3e afc5 a13e e284 c83e
00000210: a4a4 863e 21c2 ebbe 5b7a 0abe 00ee 67bf
00000220: 6432 bc3e 3671 0abf d328 1bbf 1da6 983e
00000230: 7ed8 95be 120c 433e ec83 f9be 6b3c 49bd
00000240: 2ad3 70bd a3b4 9d3e b600 963e 74f3 e63c
00000250: 13a5 a53e e356 5fbe 3e51 5cbe f752 e9bd
00000260: b8b7 893e 66b1 af3e b1e6 11bf 98c3 8fbe
00000270: b42d 2d3e a0dd fdbe b069 c23e 8983 b5bc
00000280: bf0c 55be 5009 16bf 63c7 043e 69ce 46bf
00000290: da8d 28be 2305 22be ebf9 05bf 51ec 8ebe
000002a0: ffcf eb3b db40 b3be 38d3 423e ac86 913d
000002b0: 51ea b6be 1021 993c 19ba 823e fd9c c5be
000002c0: da66 83be 0e55 303e d1c4 083f 3bb7 c2bd
000002d0: dee3 9e3d e606 abbe 5af6 9dbe fdda 7d3c
000002e0: db04 17be bd7e c3be 21f6 593e 8eb8 cebd
000002f0: c3d0 40be 611d e0be ebf8 893e ab99 c53e
00000300: 2377 40bf 476d c6be c491 82be 79df c7be
00000310: 4030 80bc c626 193d 8836 5c3e 799a 98be
00000320: 1ad5 9bbe 1377 193e 69d3 06bf 223d c9bd
00000330: b768 3e3e 1a7c c1bd 6ab6 8cbf 3a88 793d
00000340: 42de 49bf 91ce 1abf d914 75bc ce9c ef3e
00000350: cd24 94bf 4f65 a9bd fe89 6b3e 5011 56be
00000360: 9258 5c3e c5b4 cb3e 50d5 7a3e ecce f4be
00000370: c32c 06bc 3a69 ba3e 975b 5abe 687b 1b3f
00000380: 5ac8 033d 77f2 1ebf 9999 6c3e 098e a4bf
00000390: 5828 7abe f19b 853b 8bff 2cbc 9d53 463e
000003a0: c325 4dbd e289 f83e 0733 ac3e f32c a23e
000003b0: e8d4 1dbe f10b 05bf e908 a73e 9392 5cbe
000003c0: 72a9 a8bd bffa 41bf 0675 0cbe ea2d 58bf
000003d0: 6dab 653e a340 c9bd 8478 143e 19aa 1a3e
000003e0: 31ae 9dbf 7ce7 6fbe 9697 77bf 7515 b3be
000003f0: ee43 83bf 74ca 8fbb fbf1 a23e d358 c6bb
